Assignment8(lab10,lab11,lab12)/18308013_18340095_final/code/AI_first_model_30000_v2.pth (torch_old, 202575 bytes, 6 tensors)

conv1.weight f4 [8, 3, 3]
000000 80 7d a7 be e0 73 4b be e2 73 98 be 7c 58 d2 bd
       -0.32712936 -0.19868422 -0.29775912 -0.10270783
000010 20 51 20 3c 9e 12 9e be 9c d1 e9 3d c3 1b 78 be
       0.009784967 -0.3087358 0.11416933 -0.2422934
000020 f0 90 9a 3d 3f 87 38 bf 67 bf 71 bf 46 99 47 3d
       0.07547176 -0.7208137 -0.9443268 0.048730157
000030 e7 a1 9f bf 00 b0 ca bf 84 c2 b1 bf 0d 95 a5 3d
       -1.2471284 -1.5834961 -1.3887486 0.0808507
000040 2c 91 03 be e3 ef 10 bf 9f 35 d9 bd c5 ab 38 3e
       -0.12848347 -0.5661604 -0.106059305 0.18034275
000050 db 0d f4 bd b7 f0 12 bf 5f 97 d1 be 31 ee 46 bf
       -0.11916705 -0.5739855 -0.409358 -0.777072
000060 7d 05 82 bd 1b cd 9b be 3b 80 f8 be 21 18 54 3e
       -0.06348703 -0.3042992 -0.48535332 0.2071233
000070 4e 56 3d 3f 35 11 55 3b a0 84 45 bf 7a 8f 3c bf
       0.73959816 0.0032511477 -0.77155495 -0.7365643
000080 4f 60 57 bf 19 64 f5 be 26 1c 32 3f a8 0a 4d bf
       -0.8413133 -0.4792793 0.695742 -0.80094385
000090 34 4c c0 bf 16 9c bd 3e 7d 46 4d bd c0 06 99 bf
       -1.5023255 0.37033147 -0.05011605 -1.1955185
0000a0 55 e0 a2 bf 8c 45 b2 bf 03 47 bd 3d a5 84 0b 3f
       -1.2724711 -1.3927474 0.0924206 0.54499274
0000b0 4c 02 3c 3e cb 45 dd bd 02 99 13 be 8d 7b 48 bf
       0.18360251 -0.108043276 -0.14413837 -0.78313524
0000c0 77 1a 90 bf fd 30 b9 bf a4 c3 e0 bf b3 62 a0 be
       -1.1258076 -1.4468075 -1.7559705 -0.31325302
0000d0 df 3f a2 3e 8e a1 ab bd 15 cb 87 bf 28 4a 96 3d
       0.31689355 -0.083804235 -1.0608851 0.07338363
0000e0 6f c3 88 bf 34 0a 88 bf fc 55 f0 bf 7b 88 c0 bf
       -1.0684642 -1.0628114 -1.877624 -1.504165
0000f0 a8 b0 9d 3e 14 ec 0f bf de 56 94 3e 35 c7 a5 3c
       0.3079884 -0.562196 0.28972524 0.02023659
000100 a5 31 88 3e aa a4 71 be da 35 6d bf cd e2 62 bf
       0.26600376 -0.2359797 -0.92660296 -0.8862732
000110 c6 9a 78 bf fa b2 5f bd 63 1d d2 be 0f 20 fc 3c
       -0.97111166 -0.054614045 -0.41038045 0.030777005

conv1.bias f4 [8]
000000 ac 00 a5 be 54 a5 84 bb 4d b3 ef bd ff 72 18 bf
       -0.32227075 -0.004048029 -0.11704121 -0.5955047
000010 ee a9 26 bf d5 29 73 be 88 8d 2d bf 25 2b b0 be
       -0.6510304 -0.23746426 -0.67794085 -0.34407917

conv2.weight f4 [12, 8, 3]
000000 70 5b 4b bc d8 5c b7 3c c8 5d 4a 3d d7 b5 c0 3c
       -0.012411937 0.022383139 0.049405843 0.023524208
000010 09 0f e0 3e 7a f5 bb be cd 87 a4 3e 17 12 bc be
       0.4376147 -0.3671072 0.32134858 -0.3673255
000020 44 83 21 3e 34 2c 08 bf ed ed 01 bf 9e b2 7f bf
       0.1577273 -0.5319245 -0.5075367 -0.99881923
000030 01 85 aa 3e e8 31 62 be 46 94 99 ba e6 75 52 3f
       0.333046 -0.2208935 -0.0011717163 0.8221115
000040 6a 99 c7 3d e3 a4 b1 be 26 22 10 3f d2 67 61 3f
       0.09746058 -0.3469611 0.56302106 0.8804904
000050 11 0f 79 bf 2c 2c 8e bf c3 5e 35 3d 16 6c 63 bd
       -0.97288615 -1.110723 0.044279825 -0.055523
000060 8a f8 f5 bd 20 d1 ae 3d 6c d1 f3 3d 6c 9b 4d be
       -0.12010296 0.08535981 0.119051784 -0.2007882
000070 eb 91 91 bd e4 fb 4e bf 9d 38 49 be 4f 03 dc bc
       -0.0710791 -0.80853105 -0.19650503 -0.026857046
000080 d2 58 f6 3e 6e d5 1a 3e 48 21 b8 bc cc 02 30 3f
       0.4811464 0.1512048 -0.022476807 0.6875427
000090 e0 5b b4 3e 33 da 50 bf 2b 4d ba bf 5f 4b 68 bf
       0.35226345 -0.81582946 -1.45548 -0.9074001
0000a0 75 16 32 3e 92 9a 01 be 55 1c 81 be d8 a0 40 3e
       0.17391379 -0.1265662 -0.25216928 0.18811357
0000b0 64 32 54 bf d3 20 23 be 4a 68 b4 3e 74 43 3c 3e
       -0.8288939 -0.1593049 0.35235816 0.18385106
0000c0 e8 06 c2 3d 7a a5 24 be 08 7b a4 3d 78 b5 d2 be
       0.094739735 -0.1607875 0.08031279 -0.41154075
0000d0 a9 63 be be 36 d4 9a bf f1 6c 1f be 38 23 ec 3e
       -0.3718541 -1.2096012 -0.15568902 0.4612062
0000e0 66 31 c1 3e 93 1d 9c 3f 55 84 cc be 50 4b d2 3d
       0.37733 1.2196525 -0.3994471 0.10268271
0000f0 d4 78 96 bd 23 63 e0 3e 30 7f e9 3e f5 71 07 3f
       -0.07347265 0.43825635 0.4560485 0.5290826
000100 22 a7 28 bf 6a f3 07 bf 3a 5c a5 3e f4 1b ba be
       -0.65880024 -0.53105795 0.32296926 -0.36349452
000110 1a 94 07 bf 49 dd 0b 3f 78 d1 c8 be 83 8e 9a be
       -0.5296036 0.5463453 -0.39222312 -0.30186853
000120 fc 9e a0 bd 6c 27 17 3e 9a fe 28 3e 59 7e 58 bf
       -0.07842824 0.14761132 0.16503373 -0.8456779
000130 38 e1 57 3f 55 72 a7 3e e7 8f 21 3e 80 6b 3b bf
       0.8432803 0.32704416 0.1577755 -0.73210907
000140 cf 1f 09 bf 00 2c 0e 3e fb 72 c7 3e 41 74 1e 3f
       -0.5356416 0.13883972 0.3895491 0.6189614
000150 8d 55 9a 3d 4e b7 17 bf c2 a0 81 be b2 97 6f bf
       0.07535849 -0.59264076 -0.2531796 -0.93590844
000160 74 fb f0 bc a5 b9 70 3f b8 a8 5d bf e1 30 9c 3e
       -0.029416777 0.9403327 -0.8658557 0.30506042
000170 19 ce 34 3f 79 75 c9 be ae 80 0d bf 9f 72 c4 bc
       0.7062698 -0.39347437 -0.55274475 -0.023980437
000180 64 dc ef 3d b4 24 04 bd 60 52 02 be a9 fa fe 3d
       0.11711958 -0.032261565 -0.12726736 0.124501534
000190 1d 60 c5 be ea 52 66 3e 8f 85 86 be 80 85 9d 3d
       -0.3854989 0.22492567 -0.26273772 0.07691479
0001a0 b1 b7 85 be 82 f9 f0 3e 87 82 b5 3e 68 d1 33 3f
       -0.26116708 0.4706536 0.35451147 0.70241404
0001b0 5f 6e e9 3d 00 ce e6 3d ae 96 e7 bd 2c b2 df be
       0.11398005 0.1126976 -0.11308037 -0.43690622
0001c0 45 8e db 3e 5c c6 ec ba 93 f3 cd be 1d b7 50 bf
       0.4288198 -0.0018064487 -0.40224895 -0.8152941
0001d0 45 03 b6 bb b0 04 95 3e 17 ba 5c 3f f6 dd da 3d
       -0.005554589 0.2910514 0.8622145 0.10686867
0001e0 00 bc b6 3c 0a df 04 3e 0a c5 8a bd ab c1 49 3e
       0.022306442 0.12975708 -0.067758635 0.19702785
0001f0 53 70 f0 3e 70 eb 5a 3d 0c c5 da be 8a af 7b 3e
       0.46960697 0.053447187 -0.4272846 0.24578682
000200 d3 dd 35 be 26 4d f0 3e 8e 92 8a be 2c 2e 8a 3e
       -0.177604 0.4693386 -0.27064937 0.2698835
000210 b6 fa 13 bf 71 41 f6 be c3 e8 43 bb 0c f0 c6 3d
       -0.5780443 -0.48096803 -0.0029893375 0.09713754
000220 88 f9 93 3f 3f b6 36 3f 61 b0 fc be 44 92 06 3e
       1.1560526 0.71371835 -0.49353316 0.13141733
000230 f4 d4 a0 3e f4 32 03 be 20 2c 1f bf 68 0b 5a 3f
       0.3141247 -0.12812406 -0.62176704 0.85173655
000240 38 79 76 3d 28 12 1f 3e 60 23 05 be e7 28 11 3e
       0.060174197 0.1553427 -0.13001776 0.1417576
000250 a8 d9 67 3f 8e f7 4e bf 70 3c ac 3e b0 4a 3d 3d
       0.9056649 -0.8084649 0.3363986 0.046213806
000260 11 d7 34 3e 03 89 09 3f 3d 59 7b bf 41 50 a0 3f
       0.17660166 0.5372469 -0.9818304 1.2524492
000270 f1 ff e2 bf 5c dc 85 3e bf 05 7e 3e 2c 35 12 3f
       -1.7734357 0.26144683 0.2480688 0.57112384
000280 0e bc 2a be 50 8a 00 3f 21 38 67 3e 32 db ab 3b
       -0.166733 0.5021105 0.22580005 0.005244636
000290 26 cb 98 3d a7 15 96 3e 9b ac 1b be 35 fc 8c 3e
       0.074606225 0.29313394 -0.15202563 0.2753617
0002a0 38 a6 bb 3d 20 8c f3 3c e0 fc c6 bb 4b ed 35 be
       0.09162563 0.029729903 -0.0060726255 -0.17766301
0002b0 d1 29 c7 3f 27 a4 99 3f 34 d8 c6 3e a7 08 5b be
       1.5559636 1.200322 0.38836825 -0.2139002
0002c0 9c d8 89 bc 50 7d 99 bf aa 2a 24 bd 35 14 46 3f
       -0.01682692 -1.1991367 -0.04007975 0.77374583
0002d0 f9 66 98 bf ad ca 34 be b6 c3 9a 3e af f7 c1 bf
       -1.1906425 -0.1765544 0.3022744 -1.5153712
0002e0 ba e6 54 bf 38 97 ba 3f b3 af 53 bd 22 7b 26 bf
       -0.8316456 1.4577398 -0.05168123 -0.65031636
0002f0 dc dc 72 3e 21 7a 98 3d 04 c6 b9 be e7 6e fa 3e
       0.23717064 0.07445169 -0.36283886 0.48912737
000300 b8 ad 20 bd d6 f0 2e 3e 92 6b 30 3e 39 a6 9f 3f
       -0.03922817 0.17084059 0.17228535 1.2472602
000310 60 1c 47 3f 54 f9 94 3f 79 f8 40 be 64 cb 7b 3d
       0.7777767 1.1638589 -0.18844785 0.061473265
000320 e8 75 88 be df 27 04 40 72 bf a5 3b e5 00 49 40
       -0.26652455 2.0649335 0.0050582225 3.1406796
000330 03 7a 0c 40 c9 3d 8e bd de 16 e8 3d 86 2e e4 3f
       2.194947 -0.06945378 0.113324866 1.7826698
000340 df e5 e6 3f 07 50 29 40 c2 84 9c 3f 9e 0d 03 3f
       1.8038901 2.6455095 1.2228014 0.51192653
000350 e3 21 94 3f 67 f0 00 3f ec a1 89 3e e2 ee 6f 3f
       1.1572841 0.50366825 0.2688135 0.9372388
000360 50 96 d3 3d a4 3e f9 3d 14 7e 1b 3e fa 2f 77 3f
       0.10331404 0.12170151 0.15184814 0.9655758
000370 a1 56 02 3f b8 8e 80 bf ff 8c 21 3c 6b 5b 1c 3e
       0.50913435 -1.0043554 0.009860276 0.15269248
000380 11 47 bf be bd b0 0e 3f c1 43 9e 3e 2b c4 c7 bd
       -0.37358907 0.5573843 0.30911067 -0.09754213
000390 5b 53 97 3f 5d 7b 28 be 15 35 1c c0 e2 93 7f 3f
       1.1822313 -0.1645331 -2.4407399 0.99835026
0003a0 bb ec ee 3e 72 ca 25 c0 eb 65 e2 3e da 02 30 3f
       0.46664986 -2.5904813 0.44218382 0.6875435
0003b0 11 4d e5 be d8 2d f2 3e dd 4f d7 3e f4 fb 72 bf
       -0.4478536 0.473006 0.42053118 -0.949157
0003c0 c8 1d 19 bd 64 85 50 3e 3d 6d fd bd d8 34 1d 3e
       -0.037381917 0.20363384 -0.12374351 0.1535219
0003d0 67 2a 4e 3d 04 2d e9 be 7c 16 a3 be 70 ea dd 3d
       0.050333407 -0.45542157 -0.31853092 0.10835731
0003e0 5b 41 aa be 47 aa a2 be 2e 2d 93 bf f4 1c c5 be
       -0.33252987 -0.31770536 -1.1498163 -0.38498652
0003f0 33 5a 80 bf 37 b0 72 3e 12 13 8c 3e d1 99 fb 3e
       -1.0027527 0.23700033 0.273583 0.4914079

conv2.bias f4 [12]
000000 2f d6 6a bf a4 6d 1c bf 76 89 b8 bf 04 12 30 bf
       -0.9173307 -0.611048 -1.441695 -0.6877749
000010 47 72 79 bf 01 aa 84 bf c0 73 b3 bf b3 db 8d be
       -0.9744 -1.0364381 -1.4019699 -0.2770668
000020 f0 0e f4 bf 12 ae 07 bf 5b 36 87 bf e0 36 4c bf
       -1.9067059 -0.52999985 -1.0563463 -0.7977123

linear.weight f4 [65, 768]
000000 9e 16 64 bf e7 f3 fb 3e b1 02 0d bf 42 50 55 c0
       -0.8909701 0.4920952 -0.5508223 -3.3330235
000010 4e e4 9c bf 61 7d d3 bf 5f 35 94 bf ad c9 5b bf
       -1.2257173 -1.6522638 -1.1578788 -0.8585461
000020 50 b5 42 bf 12 76 12 c0 0f 57 86 bf cf 4f e0 bf
       -0.7605791 -2.2884564 -1.0495318 -1.7524356
000030 af 0c 1b c0 2a b5 5a c0 45 6d c7 bf ed 50 b2 bf
       -2.4226491 -3.4173074 -1.5580221 -1.3930947
000040 a8 3a 80 bf 65 b5 34 c0 24 66 2e 3f 76 f7 33 bf
       -1.00179 -2.8235714 0.68124604 -0.7029947
000050 ef 07 dc bf a2 d5 b8 bf f0 6a 36 bf 57 a1 eb bf
       -1.7189921 -1.4440196 -0.71256924 -1.8408612
000060 51 30 30 bf 28 9d 5c c0 cf 63 05 c0 e8 35 e5 bf
       -0.68823725 -3.447092 -2.0842168 -1.7907076
000070 98 3c be 3e 53 82 0e 3f 63 34 38 bf ed 66 ca bf
       0.37155604 0.5566761 -0.71954936 -1.581266
000080 c5 d1 af bf 60 ac 50 c0 6a 4f 0b c0 4d c0 e0 bf
       -1.3735892 -3.260521 -2.176722 -1.7558686
000090 3e f0 09 bf 6f 40 db 3e 9e 57 32 bf 71 5b e7 bf
       -0.53882205 0.42822596 -0.69664943 -1.8074781
0000a0 58 c7 42 c0 0f 25 17 c0 6c 04 a7 be 3e f6 9d bd
       -3.043417 -2.3616369 -0.3262056 -0.077129826
0000b0 7d 51 d1 bf 72 48 23 bf b8 7c ba bf 73 5e d4 bf
       -1.6352993 -0.6378242 -1.4569311 -1.6591324
0000c0 48 af ca 3e 2a 7e 15 3e e5 72 5a bf a8 07 2b be
       0.39586854 0.14598909 -0.85331565 -0.1670214
0000d0 91 3d 07 3f f1 88 ba bf 39 2c 68 bf f7 85 81 bf
       0.5282832 -1.4573041 -0.9069248 -1.0119008
0000e0 84 70 e5 bf 54 37 24 c0 1e 9a b3 bf 01 65 bb bf
       -1.7924962 -2.565877 -1.4031408 -1.4640199
0000f0 75 7b d1 bf 6a 30 0b c0 85 26 cf be 30 db 6f be
       -1.6365801 -2.17483 -0.40459076 -0.23423457
000100 ed 90 6b 3e 1e 9b 0d 3e 57 7f a7 c0 af a9 a2 c0
       0.23004504 0.13828704 -5.2342944 -5.0832133
000110 d1 28 a3 c0 34 f2 ac c0 bc 1b 6a c0 45 a7 76 c0
       -5.0987325 -5.404566 -3.6579428 -3.8539593
000120 8c 0d f9 bf d0 47 ff be fb b2 06 c0 9b 47 4a c0
       -1.9457259 -0.49859476 -2.104674 -3.1606205
000130 9e 91 21 bf c6 ce 42 c0 be 07 d1 bf ce 76 8e c0
       -0.6311282 -3.0438704 -1.6330488 -4.4520025
000140 e8 cc 20 bf 41 71 81 c0 ee 07 51 c0 80 82 a9 be
       -0.6281266 -4.045075 -3.266109 -0.33107376
000150 cc 9c 67 c0 2e ad 17 c0 23 e2 24 c0 31 47 0d c0
       -3.6189451 -2.369945 -2.5763023 -2.2074702
000160 92 6c 02 c0 3b 0e 83 c0 91 34 02 c0 75 e3 3e c0
       -2.0378766 -4.095487 -2.0344584 -2.9826329
000170 01 94 c5 bf e0 1d 30 c0 eb 52 19 bb 0d 69 42 c0
       -1.5435792 -2.7518234 -0.002339537 -3.0376618
000180 11 a2 8a bf 27 df 92 c0 dd b5 0a c0 e5 aa d7 bf
       -1.0830709 -4.5897403 -2.16735 -1.6849028
000190 f8 ca 30 c0 81 61 3f c0 87 df 9c bf cc 87 0a c0
       -2.7623882 -2.9903262 -1.2255715 -2.1645384
0001a0 86 80 da 3d bd 48 23 c0 94 11 13 c0 65 43 2b c0
       0.10669045 -2.5513146 -2.297948 -2.6759884
0001b0 e8 cd 55 c0 c4 61 8e c0 e6 e8 11 c0 3e dd d0 c0
       -3.3406925 -4.4494343 -2.27984 -6.527007
0001c0 b4 2d e1 bf 3b 44 28 c0 70 41 31 c0 88 0a 0f bf
       -1.7592072 -2.6291645 -2.769619 -0.55875444
0001d0 ed 74 21 c0 00 4e 61 c0 51 78 81 c0 15 0a 73 c0
       -2.5227616 -3.5203857 -4.045937 -3.7974904
0001e0 f4 01 04 c1 f9 e1 65 c0 51 47 f3 c0 5b 7c 9d c0
       -8.250477 -3.5919173 -7.6024556 -4.92143
0001f0 47 80 6d c0 84 34 bd c0 87 3b 85 c0 6f a5 cc 3e
       -3.7109544 -5.9126606 -4.1635165 0.39969966
000200 82 0b 59 be 6f 5e 56 c0 58 49 cd bf f1 fe da bf
       -0.21195796 -3.3495138 -1.6038008 -1.7109052
000210 36 67 b5 bf 8b 2b d9 bf 19 7d 9a c0 e8 59 28 c0
       -1.4172122 -1.6966413 -4.8277707 -2.6304874
000220 64 76 1c c0 42 85 98 bf c7 61 cd bf 6a 40 30 bf
       -2.444726 -1.1915667 -1.6045464 -0.6884829
000230 00 80 9e be 1e 9e 86 bf 13 ce 89 c0 6f 1c a6 c0
       -0.3095703 -1.0517004 -4.3064055 -5.190971
000240 1c 04 01 c0 0a 1c 5b c0 e5 a0 c4 3e 7c 5e 46 bf
       -2.0158758 -3.4235864 0.38404003 -0.7748792
000250 93 a9 c1 be 72 e1 2d c0 63 c1 60 c0 0b 8f 2a c0
       -0.37824687 -2.716885 -3.5118034 -2.6649806
000260 c9 be fb bf b5 70 8a bf 7f ee d4 be 2f b1 a3 bf
       -1.9667598 -1.0815645 -0.41588208 -1.2788447
000270 dc ff 10 c0 f4 4c c7 bf 67 0b 30 bf 79 92 55 be
       -2.2656164 -1.5570359 -0.687674 -0.20856656
000280 cc bf bf bf 37 7e e6 bf 68 77 e0 bf 4e 7e c6 3f
       -1.4980407 -1.8007268 -1.753644 1.5507295
000290 99 0e 97 bf fb be ee bf 27 df 97 3d 96 58 1a c0
       -1.180133 -1.8652033 0.0741561 -2.4116569
0002a0 ae 43 3d c0 75 1c 52 c0 65 91 46 c0 43 b3 3c bf
       -2.9572558 -3.2829869 -3.1026242 -0.7371103
0002b0 2e bc db bf 77 1a 47 c0 d9 dc d7 bf 6f 9b 95 c0
       -1.7166803 -3.1109903 -1.6864272 -4.675224
0002c0 97 2b 38 c0 0f 5c f5 bf 84 49 7d bf 6a 9f 27 3e
       -2.8776605 -1.9168719 -0.989403 0.16369405
0002d0 0e 23 f4 bf da 62 fa be b0 96 ae bf 73 15 ff bf
       -1.9073198 -0.48903543 -1.3639736 -1.9928421
0002e0 51 2e 7c c0 d4 3d 1b be bf 87 f0 bf 16 e7 67 c0
       -3.940327 -0.15160304 -1.8791426 -3.6234794
0002f0 1b 76 43 bf be 78 22 bf 44 92 94 bf fb cb 41 bd
       -0.7635209 -0.6346549 -1.1607137 -0.04731367
000300 bb 36 7d bf 07 6c 6d bf 9b d7 25 c0 f0 5a 97 c0
       -0.9891164 -0.9274296 -2.5912845 -4.729851
000310 d1 26 69 c0 25 ae a0 c0 5f 5c 92 c0 38 85 a5 c0
       -3.6429942 -5.021258 -4.573776 -5.172512
000320 f8 8d 69 c0 46 4b 9e bf ee 2c 5e bf 51 ac 1a c0
       -3.64929 -1.2366722 -0.8678731 -2.4167674
000330 1c 1f fe bf 5c 3b 2e c0 5d fe 5d c0 89 cc 5e 3e
       -1.9853244 -2.722373 -3.46865 0.21757711
000340 eb 6b 18 c0 03 5b 2b c0 15 0f ff bf d6 a4 1e c0
       -2.3815868 -2.67743 -1.9926478 -2.4788108
000350 53 f8 9e c0 37 0a 60 bf b1 04 2d c0 55 37 00 bf
       -4.967813 -0.87515587 -2.7034113 -0.5008443
000360 81 ad 4e c0 fb e8 87 bf 25 48 c9 bf c2 b4 77 c0
       -3.2293398 -1.0617975 -1.5725142 -3.8704076
000370 d7 ef 8e bf f3 73 2e c0 b3 b6 3f c0 1c 01 61 c0
       -1.1166943 -2.725827 -2.995526 -3.5156927
000380 1f 32 90 c0 3c 64 32 c0 e5 01 46 c0 10 7b e7 3e
       -4.5061183 -2.7873678 -3.0938656 0.45211077
000390 4b 7f 2e 3f 22 e3 33 c0 a2 b4 2d c0 1a 57 cf c0
       0.68162984 -2.810738 -2.71415 -6.4793825
0003a0 da c2 46 c0 4b 8b 0d bf 08 83 db 3b e5 ab 4d bf
       -3.1056428 -0.5529067 0.0066989698 -0.80340415
0003b0 66 1d 3a c0 b9 ea e2 be 70 b4 82 c0 5b 0d 45 c0
       -2.9080443 -0.44319704 -4.084526 -3.0789402
0003c0 43 0a 9b c0 59 58 8d bf 69 08 22 bf cf f2 aa c0
       -4.8450027 -1.1042587 -0.6329408 -5.3421397
0003d0 53 5c 02 c0 f6 2d 21 c0 86 a0 7d c0 e7 c8 28 c0
       -2.036885 -2.5184302 -3.9629226 -2.637262
0003e0 52 2f ea c0 7b 51 90 c0 a3 61 22 c0 1f fb b0 c0
       -7.3182764 -4.5099463 -2.5372093 -5.5306544
0003f0 e8 a2 79 c0 18 59 55 c0 bc a2 57 c0 33 b5 ea be
       -3.900568 -3.3335629 -3.3693075 -0.4584137

linear.bias f4 [65]
000000 96 1b 85 c1 db 22 65 c1 78 64 89 c0 bb 73 a2 c0
       -16.63847 -14.32101 -4.2935143 -5.0766273
000010 38 f8 a5 bf 1c 68 28 c1 af 9d 41 c1 6f 4f 89 c1
       -1.2966375 -10.525417 -12.100997 -17.163786
000020 cf bf 6e c1 ea 31 44 bf 55 e5 26 be 3e 94 f9 bf
       -14.921828 -0.7663866 -0.1629842 -1.9498365
000030 f8 e1 e1 bd b0 ab 4a bf db 50 18 c0 81 a4 5a c1
       -0.11029428 -0.79168224 -2.379935 -13.665162
000040 cd ee 53 c0 82 07 d5 bf ea 53 c2 be 5d 2b 10 bd
       -3.3114502 -1.6642916 -0.37954646 -0.035197604
000050 20 dc fb be d7 b1 44 bf e0 26 0f c0 c2 44 c3 c0
       -0.4919138 -0.7683386 -2.2367477 -6.1021433
000060 68 cb 19 c0 5f ad fb bf e8 af e0 bc aa 42 12 bc
       -2.40304 -1.9662284 -0.027427629 -0.008927027
000070 65 05 bd bc ca 35 b6 bf b6 96 88 bf f6 36 0e c1
       -0.023073861 -1.4235165 -1.0670993 -8.888418
000080 57 42 cd c0 26 c0 c5 bf a5 ef 94 bf 38 9e 09 bd
       -6.414348 -1.5449264 -1.1635634 -0.033598155
000090 b0 34 e3 3c bf 64 8a bd 81 56 fb bf 5d ce 2a c1
       0.027735084 -0.06757497 -1.9635774 -10.675382
0000a0 15 5d 4c c1 20 70 b8 bf 57 01 f6 be fb 3d ec bf
       -12.772725 -1.4409218 -0.48047897 -1.8456415
0000b0 14 6e e6 bd e4 e5 f3 be e5 d2 5d bf 25 cd 34 c1
       -0.112514645 -0.4763633 -0.86649925 -11.300084
0000c0 be a6 8a c1 7c df df bf 75 4a f2 bf cb 30 e7 be
       -17.331417 -1.7490077 -1.8928972 -0.45154414
0000d0 32 af 25 c0 d4 35 26 c0 ee 69 45 c0 c1 53 17 c1
       -2.588818 -2.5970354 -3.0845904 -9.457948
0000e0 f7 c6 8a c1 08 cc 8c c1 2b ed 84 c1 d0 ec 06 c1
       -17.34715 -17.599625 -16.615805 -8.432816
0000f0 02 33 03 c0 c9 eb 9e c0 b1 e8 73 c0 cb fc 83 c1
       -2.0499883 -4.9662824 -3.8110774 -16.498434
000100 eb 85 f5 c1
       -30.69039
