Assignment8(lab10,lab11,lab12)/18308013_18340095_final/code/AI_second_model_30000_v2.pth (torch_old, 202575 bytes, 6 tensors)

conv1.weight f4 [8, 3, 3]
0	0xbdee7e99	-0.1164524
1	0x3e0d8d0f	0.13823341
2	0xbf0f9a16	-0.5609449
3	0xbf85ab86	-1.044297
4	0xbfab802b	-1.3398489
5	0xbf9237e9	-1.1423312
6	0xbfbc6a9a	-1.4720032
7	0x3e1992d6	0.1499742
8	0x3ee7e26b	0.4528993
9	0xbe9ab529	-0.3021634
10	0x3ebc1d9d	0.36741343
11	0x3e571a93	0.21006231
12	0xbfcb756c	-1.5895209
13	0xbf929a61	-1.1453363
14	0xbf111c14	-0.5668347
15	0x3b9db7ab	0.0048131547
16	0x3ea23ddd	0.31687823
17	0xbf057c37	-0.5214266
18	0xbe2bb32f	-0.16767572
19	0x3f4042a3	0.7510168
20	0x3e15cbd6	0.14628538
21	0xbfe1e4c9	-1.7647945
22	0xbf9d01bd	-1.2266155
23	0xbfc73076	-1.5561664
24	0xbf8dc80b	-1.1076673
25	0xbe868976	-0.2627675
26	0xbfc268d7	-1.5188245
27	0xbf15c040	-0.58496475
28	0xbf88475f	-1.0646781
29	0x3e245459	0.16047801
30	0x3ed450e5	0.41467968
31	0xbfc509e5	-1.5393645
32	0xbf9aca15	-1.209292
33	0x3e8e1055	0.27746835
34	0xbb41ff8d	-0.0029601783
35	0xbed8036d	-0.42190114
36	0x3fe01827	1.7507371
37	0x408fbadc	4.49156
38	0x3f1ca486	0.6118854
39	0x41a03e63	20.030462
40	0x41d5add6	26.70988
41	0x41bf2374	23.892311
42	0xbf9cab65	-1.2239805
43	0xc00214f4	-2.0325289
44	0xbf248bb7	-0.6427569
45	0x3e6002a7	0.21876012
46	0xbefc658f	-0.49296233
47	0xbe1861e8	-0.14881098
48	0xbf99253a	-1.1964486
49	0xbfd051e6	-1.6274993
50	0xbfb98b1c	-1.4495578
51	0xbf9971f5	-1.1987902
52	0x3db77155	0.08957163
53	0x3e0bf6d9	0.13668384
54	0xbd92e502	-0.07172586
55	0xbf183568	-0.5945649
56	0xbf662162	-0.8989469
57	0xbfc4e6fa	-1.5382988
58	0xbe0866b9	-0.13320436
59	0xbeb2070d	-0.34771004
60	0x3d4d2a28	0.05008903
61	0xbe3f52b5	-0.18683894
62	0x3ea7a4b4	0.32742846
63	0xbf819993	-1.0124992
64	0x3eb917cb	0.36150965
65	0xbf0828eb	-0.53187436
66	0xbfc4a554	-1.5362954
67	0xbf5470f6	-0.82984865
68	0xbfc0dbba	-1.5067055
69	0xbec5f405	-0.38662735
70	0x3eeee71e	0.46660703
71	0xbc1d5a0e	-0.00960399

conv1.bias f4 [8]
0	0xbf1c5b03	-0.6107637
1	0xbf17bef1	-0.5927573
2	0xbe3dbbaf	-0.18528627
3	0xbf159d5a	-0.58443224
4	0x3f5ec0f3	0.8701317
5	0xbef67001	-0.48132327
6	0xbe801bc2	-0.25021178
7	0xbeee97fc	-0.4660033

conv2.weight f4 [12, 8, 3]
0	0xbe4bed76	-0.19914803
1	0xbfc70c96	-1.5550716
2	0x400409e3	2.0631034
3	0x3f254a30	0.64566326
4	0x3f257d13	0.64643973
5	0xbfdb8cac	-1.7152305
6	0x3edb5559	0.42838553
7	0x40278eb1	2.6180842
8	0xc005422c	-2.0821638
9	0x3fec86ce	1.8478639
10	0xbf7cb3ed	-0.98712045
11	0xbeaf312a	-0.34217197
12	0xbddc8d49	-0.107691355
13	0xbdf8f459	-0.121559806
14	0xbeb4612e	-0.35230392
15	0x3f24eb1f	0.64421266
16	0xbf1c165c	-0.6097162
17	0x3fc17dc9	1.5116512
18	0xbd1d730c	-0.038439795
19	0x3eda13fe	0.42593378
20	0xbe83d4b8	-0.2574823
21	0xbfac501c	-1.3461947
22	0x3f8bb509	1.0914623
23	0xbf17f238	-0.5935397
24	0xbffb3718	-1.9626188
25	0x3f24f082	0.64429486
26	0x3de40d7e	0.11135386
27	0x3c600406	0.013672834
28	0x3f32ca46	0.69839895
29	0x3eead8b7	0.45868465
30	0xbeb17f0f	-0.3466725
31	0x3e294458	0.16529977
32	0xbe18a51e	-0.14906737
33	0x3e184377	0.14869486
34	0xbe8bee60	-0.27330303
35	0x3f778289	0.96683556
36	0xbf48e96c	-0.78481174
37	0xbe5ddfdd	-0.21667428
38	0xbef8d0d5	-0.48596826
39	0xbff15df2	-1.8856795
40	0x3f839588	1.0280008
41	0x3f56c3c2	0.8389245
42	0xbdde73da	-0.10861941
43	0x3f3b3c24	0.7313864
44	0x3e6b8ef1	0.23003747
45	0x3f5d350b	0.8640906
46	0xbe55652d	-0.20839377
47	0xbe032ef7	-0.12810884
48	0x3e23a9d9	0.1598276
49	0x3fb44120	1.4082375
50	0x3e0d2f64	0.1378761
51	0x3f3c854f	0.7364091
52	0x3e36282b	0.1778876
53	0x3ed024b2	0.40652996
54	0x3fda2c6c	1.7044806
55	0xbf776ab6	-0.966472
56	0xbf13b05a	-0.57690966
57	0x3eedd352	0.46450287
58	0xc00f0ae2	-2.2350392
59	0x3fd03319	1.6265594
60	0xbe34d6e7	-0.17660104
61	0xbf534c9a	-0.8253876
62	0xbf229c4a	-0.6351973
63	0x400bbfa2	2.1835713
64	0x3ffaefc7	1.9604424
65	0xbf14b935	-0.58095104
66	0xbfe0f6f3	-1.7575363
67	0x3ee2a635	0.4426743
68	0xbeb0b019	-0.34509352
69	0x403cf6b0	2.9525566
70	0x4003cd27	2.0593965
71	0x4070c7b0	3.762188
72	0x3fae0f4c	1.3598418
73	0xbeae7bc9	-0.34078816
74	0xbf6e2353	-0.9302265
75	0x3fac01af	1.3438014
76	0x3dd083d2	0.10181393
77	0xbea35d76	-0.31907243
78	0xbbbf516a	-0.0058385627
79	0xbe903cfc	-0.28171527
80	0xbf0d4cbc	-0.5519521
81	0x3f841099	1.0317565
82	0x3f49c70d	0.7881935
83	0xbfa83235	-1.3140322
84	0xbde52d4e	-0.11190282
85	0xbf666ada	-0.9000679
86	0xbf66fbb3	-0.9022781
87	0xbeead623	-0.45866498
88	0x3fcace21	1.5844156
89	0xbfd00975	-1.6252886
90	0xbed5bc12	-0.4174505
91	0xbdcf492a	-0.10121377
92	0xbe298da5	-0.1655794
93	0x400e337a	2.2218919
94	0x4019bbf7	2.4020975
95	0x403dcd80	2.9656677
96	0x3fbdda18	1.4832182
97	0x3f16f980	0.58974457
98	0x3fd8fb6f	1.6951731
99	0x3f109cb0	0.56489086
100	0xbfd32573	-1.6495804
101	0x3ea31732	0.31853634
102	0xc0247fd3	-2.5703018
103	0x3fdabd97	1.7089108
104	0xc001c2ad	-2.027507
105	0x3f169e8b	0.5883567
106	0x3eea47dc	0.4575795
107	0x3f8df654	1.1090798
108	0xbeba117e	-0.3634147
109	0x3d230b25	0.03980555
110	0xbfba56e7	-1.455777
111	0x3f62252c	0.8833797
112	0xbcb9ba55	-0.022671858
113	0x3fa85794	1.3151727
114	0x3ed1497a	0.4087637
115	0x3e0b17fa	0.13583365
116	0xbf0043c3	-0.50103396
117	0x3dc04784	0.093886405
118	0x3f5cebbe	0.86297214
119	0x3e8cc99a	0.2749756
120	0xbf78b8d9	-0.97157055
121	0x3e8f707b	0.28015503
122	0xbe2dcd24	-0.16972786
123	0x3f87309c	1.056171
124	0x3f3750d2	0.71607697
125	0x3fb562fb	1.4170831
126	0xbd93b3b3	-0.07212009
127	0x3f9c33cc	1.2203307
128	0xbec9e3ec	-0.39431703
129	0x3f043267	0.5163941
130	0x3edc8f41	0.43078044
131	0x3fdabe98	1.7089415
132	0xbf7ce2d8	-0.98783636
133	0xbef3a924	-0.47589982
134	0xbec98351	-0.39358
135	0xbf618549	-0.88094
136	0x3fc457b1	1.5339261
137	0xc03a4181	-2.910248
138	0x3f3bf229	0.7341638
139	0x3e833c29	0.25631836
140	0xbf5fcf1f	-0.87425417
141	0x4038a5a4	2.88511
142	0x4012c5cc	2.2933226
143	0x3f5ce885	0.86292297
144	0x3f94177b	1.1569666
145	0xbf5553da	-0.8333107
146	0xbf8de102	-1.1084292
147	0x3e1712fd	0.14753337
148	0x3f6c7473	0.9236519
149	0xbd63a300	-0.05557537
150	0x3ebb6618	0.3660133
151	0x3fb4fd7f	1.4139861
152	0xc038d041	-2.8877108
153	0x3f01ff32	0.5078002
154	0x3f95d45e	1.1705434
155	0x3c6760b5	0.014122178
156	0xbeaf08b7	-0.34186336
157	0xbf09254b	-0.5357253
158	0xbf99f0ac	-1.2026572
159	0x3f86391e	1.0486181
160	0xbf01ca76	-0.50699556
161	0x3fb10f5c	1.3832812
162	0x3df67d61	0.12035633
163	0xbe5a8a1a	-0.21341744
164	0x3ec55c19	0.38546827
165	0x3e0fe8c6	0.1405364
166	0x3f524295	0.82132846
167	0x3f3e8879	0.7442699
168	0xbeb1d0a4	-0.34729493
169	0x3e431b55	0.19053395
170	0x3f93add1	1.153742
171	0x3fb4297d	1.4075161
172	0x3f6b7b94	0.9198544
173	0x3ecff975	0.40620008
174	0x3feb5b06	1.8387153
175	0x3ec11329	0.3770993
176	0xc077567f	-3.8646543
177	0x3ea5ecd8	0.3240726
178	0xc0049f13	-2.0722091
179	0xbe779202	-0.24176791
180	0xbf799db0	-0.9750624
181	0xbdcaaa25	-0.09895734
182	0xbeffe39b	-0.49978337
183	0xbfce1400	-1.6099854
184	0xbfe5e3a2	-1.7960093
185	0x3fcca7e0	1.5988731
186	0x3dbb2783	0.09138396
187	0x3ee94ec0	0.45567894
188	0x3ecb1a0c	0.3966831
189	0xbfa5a3cb	-1.2940611
190	0x3e6573bd	0.22407432
191	0xbf66e014	-0.90185666
192	0x3ee1b405	0.44082657
193	0x3f75c9fc	0.9601133
194	0xbf919cc9	-1.1375972
195	0x3f33c529	0.7022272
196	0xc01e6ac9	-2.4752676
197	0x3f10c752	0.5655414
198	0xc0087df6	-2.132688
199	0xc0324bba	-2.785872
200	0xbf2822f3	-0.6567833
201	0x3e43ec3c	0.19133085
202	0x3ed01bc5	0.40646186
203	0x3fa9ce27	1.3266038
204	0xbf0682e9	-0.52543503
205	0xbdb4966a	-0.08817752
206	0xbdbc253c	-0.091867894
207	0x3f1fd545	0.624348
208	0x3fc90677	1.5705098
209	0x3f485c1e	0.7826556
210	0x3e9a6f5c	0.30163085
211	0x3f12bef7	0.5732264
212	0xbec37d1a	-0.38181382
213	0x3f83ba13	1.029116
214	0x401de1f8	2.466917
215	0x3f185587	0.59505504
216	0xbf64d099	-0.89380795
217	0x3f459d3b	0.7719304
218	0x3d836a49	0.06416757
219	0xbf439b72	-0.76409066
220	0x3f6b85a0	0.9200077
221	0x3f776cad	0.966502
222	0xc01cf0d1	-2.4521983
223	0x3f8492aa	1.0357258
224	0x3faafc8a	1.3358319
225	0x3f2c506b	0.6731021
226	0x3e7ed147	0.2488452
227	0xbe983ccf	-0.29733893
228	0xbf190c51	-0.5978442
229	0xbf7dc4b8	-0.99128294
230	0xbf369cd8	-0.71333075
231	0xbedd77e1	-0.43255523
232	0x3fb78082	1.4336092
233	0x3fb56f28	1.4174547
234	0x3e1a6898	0.15078962
235	0x3e8e5300	0.277977
236	0x3ea6a803	0.32550058
237	0x3fadd0e6	1.3579376
238	0xbf0cee71	-0.5505133
239	0xbbe6a220	-0.00703837
240	0x400fda11	2.2476847
241	0x3fa857d8	1.3151808
242	0x3f412bcc	0.75457454
243	0x3fc6a8d1	1.5520269
244	0x3f6c0834	0.92200017
245	0x3fe46a59	1.7844955
246	0x4059efce	3.4052615
247	0x401df462	2.468041
248	0x403d3434	2.9563112
249	0x3f32a5c2	0.69784176
250	0x3f8a6b7d	1.0814053
251	0x3f92abc5	1.145867
252	0xbec9be2c	-0.39402902
253	0x3d03f22d	0.03221338
254	0xbe155e2e	-0.14586708
255	0x4074a665	3.822656

conv2.bias f4 [12]
0	0x3f70d580	0.94075775
1	0xbe3d5dcf	-0.18492816
2	0xbc6935f1	-0.014234052
3	0xbb578ac2	-0.0032889103
4	0x3f695fcd	0.91161805
5	0x3fa29304	1.2701116
6	0x3f5552cc	0.83329463
7	0xbb5da808	-0.0033822078
8	0x3fe94be2	1.8226283
9	0xbbf4d98f	-0.007472224
10	0x40ac4165	5.3829827
11	0xbc3e16cd	-0.011602116

linear.weight f4 [65, 768]
0	0x3f0ce843	0.55041903
1	0x3e8ff309	0.2811511
2	0x3d003d7c	0.031308636
3	0xbfae453e	-1.3614881
4	0x3da2a317	0.07941263
5	0xbf054758	-0.52061987
6	0x3f1f281d	0.62170583
7	0xc01388ef	-2.3052328
8	0xbf6c75a6	-0.9236702
9	0x3f6c105b	0.92212456
10	0x3f2704e4	0.6524184
11	0x3d5aedce	0.053449444
12	0x3faeb701	1.3649598
13	0x3f7db88a	0.9910971
14	0xbf639877	-0.8890452
15	0x3f8da872	1.106703
16	0x3fca3434	1.5797181
17	0x3f04de30	0.5190153
18	0x3e0e8321	0.13917209
19	0xbf2b0e36	-0.6681856
20	0xbf6cc3dd	-0.92486364
21	0x3e920815	0.2852179
22	0x3f531b48	0.824635
23	0xbbc57351	-0.0060257097
24	0xbf95b5ba	-1.1696084
25	0x3ebc51f6	0.3678128
26	0xbeba61f6	-0.36402863
27	0x3fc5d578	1.545577
28	0xbf9344c2	-1.1505358
29	0xbf8e500d	-1.111818
30	0xbf2201e5	-0.6328414
31	0x3f9d2e15	1.2279688
32	0x40144485	2.316682
33	0xbdde288a	-0.10847576
34	0xbcd4a86a	-0.025959212
35	0x3e6c3c58	0.23069894
36	0xbf3b8dbe	-0.73263156
37	0xbebb5a8c	-0.3659252
38	0x403c2f91	2.9404032
39	0x3fdf6afb	1.7454523
40	0xbe60c71b	-0.21950953
41	0x3e7dbebf	0.24779795
42	0x3f4a2979	0.7896953
43	0x3ee67e5a	0.45018274
44	0x3da648c4	0.08119348
45	0xbecc44bb	-0.39896187
46	0x3f126f48	0.5720105
47	0xbf39dbcc	-0.7260101
48	0x3faa6ec0	1.3315048
49	0xbf0dc4a4	-0.55378175
50	0xbf46ca5a	-0.77652514
51	0xbf080c64	-0.53143907
52	0xbede854f	-0.4346108
53	0x3d900d71	0.07033814
54	0xbfdeca18	-1.7405424
55	0xc0151b3b	-2.329787
56	0xc01d8fca	-2.4619012
57	0xbff47336	-1.909766
58	0xbf0738a5	-0.5282081
59	0xc046dee8	-3.107355
60	0xbf636496	-0.88825357
61	0xbe3c4eba	-0.18389407
62	0xbefe3459	-0.49649313
63	0xbec3d931	-0.3825164
64	0xbe7807bc	-0.242217
65	0xbe75b8e0	-0.23996305
66	0xbe9f277a	-0.31084806
67	0xbf31e90b	-0.6949622
68	0xbf463b2a	-0.7743403
69	0xbf2b490f	-0.66908354
70	0xbfa20f2f	-1.2660884
71	0xbe9d9e5c	-0.3078488
72	0x3e7e4a87	0.24833117
73	0xbf93a60e	-1.1535051
74	0x3f44679a	0.76720583
75	0xbfb166c8	-1.3859491
76	0x3e4bac48	0.19889939
77	0xbfb0c613	-1.3810447
78	0xbe5bef5f	-0.21478032
79	0xbf0fc74d	-0.56163484
80	0x3f6b724f	0.91971296
81	0x3f04272b	0.51622266
82	0x3f202cf7	0.6256861
83	0xbe980928	-0.29694486
84	0xbf284cf3	-0.65742415
85	0xbec13fdb	-0.3774403
86	0x3ed2ab9e	0.4114656
87	0xbec11d5c	-0.37717712
88	0xbeea0782	-0.45708853
89	0xbe68541f	-0.2268834
90	0x3eb202a9	0.34767655
91	0xbf22a630	-0.6353483
92	0xbfb6e1c2	-1.4287646
93	0x3e0a7ae3	0.1352344
94	0x3f2c2f17	0.67259353
95	0x3e204a35	0.15653308
96	0xbdb7b4f9	-0.08970065
97	0xbed387ec	-0.41314638
98	0x3e6c197e	0.230566
99	0xbe845f4e	-0.25853962
100	0xbf800e80	-1.0004425
101	0x3f0ee5c6	0.55819356
102	0xbf567014	-0.8376477
103	0xbe6e8914	-0.23294479
104	0x3daf0eb4	0.08547726
105	0xbf9c5051	-1.2212011
106	0xbec268c2	-0.3797055
107	0xbf924e43	-1.1430134
108	0xbf413156	-0.75465906
109	0x3fab9601	1.3405153
110	0x3d3eda08	0.04659465
111	0xbf8a90c2	-1.0825427
112	0xbe73d91a	-0.23813286
113	0xbe8bf25e	-0.2733335
114	0x3f0b3fea	0.543944
115	0xbf82ad71	-1.020918
116	0xbed79359	-0.42104605
117	0x3f7708da	0.9649788
118	0xbdac510b	-0.08413895
119	0xbf9f0eda	-1.2426407
120	0x3f6f834d	0.93559724
121	0xbf9a158a	-1.2037823
122	0xbec5115c	-0.38489807
123	0x3f193887	0.5985188
124	0xbf0201d9	-0.5078407
125	0x3ee6b5c7	0.4506056
126	0x3e44676c	0.19180077
127	0xbfd492d9	-1.6607314
128	0xbf751f54	-0.9575093
129	0xbf360fd5	-0.7111791
130	0xbf994114	-1.1972985
131	0x3e0b3791	0.13595416
132	0xbd030f9d	-0.03199731
133	0x3f69f2ee	0.91386306
134	0x3ed7e00c	0.42163122
135	0x405e8bdc	3.4772863
136	0xbf0ee464	-0.55817246
137	0xbf9ffb01	-1.2498475
138	0xbed93039	-0.42419603
139	0x3f1bf67e	0.6092299
140	0x3f48a431	0.78375536
141	0xbf45a418	-0.7720351
142	0x3ec1be00	0.3784027
143	0x3eda14eb	0.42594084
144	0x4030775c	2.757285
145	0x40396e4e	2.8973575
146	0xc05fb7d5	-3.4955952
147	0xbf8011e5	-1.0005461
148	0x3f819e2b	1.0126394
149	0xbf304dc8	-0.68868685
150	0x3f19f4d0	0.6013918
151	0x3db61bda	0.08892031
152	0x3fa536c2	1.2907336
153	0x3f2ecdd9	0.6828285
154	0x400368b4	2.0532656
155	0x3f4bb36e	0.7957066
156	0xbe9abf56	-0.30224103
157	0x3e70e031	0.23523022
158	0xc070fb02	-3.7653203
159	0xbe1ee28c	-0.15516108
160	0x3ed6ec5b	0.419772
161	0x3c4a592d	0.012350363
162	0x3f8408f8	1.0315237
163	0x3e0a95de	0.13533732
164	0xbf19301b	-0.5983903
165	0x3d9ec6a3	0.07752731
166	0xbe9f669b	-0.3113297
167	0x3f0987ec	0.53723025
168	0x3da887a4	0.082289964
169	0xbfff8190	-1.9961414
170	0xbf7ab4ec	-0.97932315
171	0xbeaeea03	-0.34162912
172	0xbf338896	-0.7013029
173	0x3f9514a5	1.1646925
174	0xc04dba02	-3.214478
175	0x3f118bef	0.56854147
176	0x404cc1ff	3.1993406
177	0x3eb681b4	0.3564583
178	0x3fea20ad	1.8291222
179	0xbf54ffed	-0.8320301
180	0x3e6c40de	0.2307162
181	0x3fbbc523	1.4669536
182	0xbfe458ec	-1.7839637
183	0x3fcd6b62	1.6048396
184	0xbf2bac8d	-0.67060167
185	0x3eff780b	0.49896273
186	0x3dfb9702	0.12284662
187	0x3e59b051	0.21258666
188	0x3f9767fd	1.182861
189	0xbe4e91a6	-0.20172748
190	0x3f83c15b	1.0293382
191	0xbfd6ebfe	-1.6790769
192	0x3f1229ff	0.5709533
193	0xbfe8c8ba	-1.8186257
194	0xbeae8525	-0.34085956
195	0x3eca02bf	0.3945522
196	0x3f28874e	0.6583146
197	0xbef79606	-0.48356646
198	0xbed9ce6a	-0.42540294
199	0xbfc839bc	-1.5642619
200	0xc042495c	-3.0357275
201	0x3f1e9af7	0.6195521
202	0xbfc403e1	-1.5313684
203	0xbfffb390	-1.9976673
204	0xbfa88189	-1.3164531
205	0x3e2c2495	0.1681083
206	0x401f46c5	2.4886944
207	0xbf5d450c	-0.8643348
208	0xbef3e1fd	-0.47633353
209	0xbfd58181	-1.6680146
210	0x3dadd2c7	0.08487468
211	0x3fa73193	1.3062004
212	0x3e009adf	0.12559079
213	0xbe9e35ac	-0.30900323
214	0xbed447f3	-0.41461143
215	0x3ff392d7	1.9029187
216	0xbf0e135d	-0.55498296
217	0xbfe30598	-1.7736082
218	0xbf723511	-0.9461222
219	0x3f1c3108	0.61012316
220	0x3e6da1aa	0.23206201
221	0xbfc56e4b	-1.5424284
222	0x3e3f3dbf	0.18675898
223	0xc05dfe3a	-3.4686418
224	0xbfe2e6fb	-1.772674
225	0xbf3f5b74	-0.7474892
226	0xbffa0f5c	-1.9535937
227	0x3f518945	0.8185008
228	0x3e653959	0.22385158
229	0xbf6e265e	-0.93027294
230	0xbfdbffd8	-1.7187452
231	0x3ec48021	0.38379005
232	0x3fd83cc1	1.6893541
233	0xbfa628a8	-1.2981157
234	0x3e316b86	0.17326173
235	0xbfa19279	-1.2622825
236	0x3f784d29	0.9699274
237	0xbf78de5b	-0.9721429
238	0xc06dd1ed	-3.7159379
239	0xbf1a5598	-0.60286856
240	0xc0288229	-2.6329443
241	0x3fc7ce46	1.5609825
242	0x3e90cd98	0.28281856
243	0xbeeef151	-0.46668485
244	0xbf7bbe44	-0.983372
245	0xbfa1ccc1	-1.2640611
246	0x3f81ad99	1.0131103
247	0xc017466f	-2.363674
248	0xc04b828e	-3.1798434
249	0xbed2b4c0	-0.41153526
250	0x3fd6d54a	1.6783841
251	0xbde72ee7	-0.11288243
252	0x3e927d25	0.28611103
253	0x3defeca2	0.11715056
254	0xbeff3b67	-0.49850008
255	0x3fa88921	1.3166848

linear.bias f4 [65]
0	0xbf88711b	-1.0659517
1	0xbf1efc73	-0.62103957
2	0xbe073f3b	-0.13207714
3	0xbeb15554	-0.34635413
4	0xbd3be987	-0.045877006
5	0xbeff008d	-0.49805108
6	0xbec33b91	-0.38131383
7	0xbf9f7a18	-1.2459135
8	0xbf2eb931	-0.6825133
9	0xbcbc9148	-0.023018494
10	0xbcdf5a18	-0.02726464
11	0xbcc15be7	-0.023603393
12	0xbd3bc3c5	-0.045840997
13	0xbd69a8f0	-0.057045877
14	0xbd427ef3	-0.04748435
15	0xbf21ed39	-0.632526
16	0xbe8a4781	-0.27007678
17	0xbcce4f08	-0.02518417
18	0xbcce0336	-0.025148015
19	0xbcc4be1d	-0.024016434
20	0xbcccf342	-0.025018338
21	0xbcad09b5	-0.021122793
22	0xbd05b22d	-0.032640625
23	0xbef0dc38	-0.47043014
24	0xbe93995a	-0.28827935
25	0xbd52f78d	-0.051505614
26	0xbd04aeef	-0.032393392
27	0x3c1141e4	0.008865807
28	0xbc3e273c	-0.011606034
29	0xbcd3bc7b	-0.02584671
30	0xbdaf5197	-0.08560484
31	0xbf127cea	-0.57221854
32	0xbef89f70	-0.4855914
33	0xbcca458e	-0.02469137
34	0xbced53eb	-0.02897068
35	0xbc5fe878	-0.013666265
36	0x3d01b374	0.03166528
37	0xbccb2100	-0.024796009
38	0xbd98214a	-0.074282244
39	0xbf15f3bc	-0.58575034
40	0xbf3da50a	-0.74079955
41	0xbcddc1a0	-0.027069867
42	0xbd217006	-0.039413475
43	0xbd18a95b	-0.037270885
44	0xbccf5bc0	-0.025312304
45	0xbcce23ee	-0.025163617
46	0xbcfd5ca4	-0.030927964
47	0xbed14620	-0.40873814
48	0xbfcc8955	-1.597941
49	0xbdc325d1	-0.09528697
50	0xbd11ae3b	-0.03556655
51	0xbcc3aa1f	-0.023884831
52	0xbd504344	-0.0508454
53	0xbdc2cf1d	-0.0951216
54	0xbcec3087	-0.028831733
55	0xbe95e6ee	-0.29277748
56	0xbfaaef95	-1.3354365
57	0xbfa4b254	-1.2866921
58	0xbf26b273	-0.6511604
59	0xbeb8896a	-0.3604234
60	0xbe0e0d31	-0.1387222
61	0xbeb95fb7	-0.36205837
62	0xbea719c4	-0.32636845
63	0xbf15f69f	-0.5857944
64	0xbf06c321	-0.52641493
