Assignment8(lab10,lab11,lab12)/18308013_18340095_final/code/AI_second_model_22000_v2.pth (torch_old, 202575 bytes, 6 tensors)

conv1.weight f4 [8, 3, 3]
00000000: 997e eebd 0f8d 0d3e 169a 0fbf 86ab 85bf
00000010: 2b80 abbf e937 92bf 9a6a bcbf d692 193e
00000020: 6be2 e73e 29b5 9abe 9d1d bc3e 931a 573e
00000030: 6c75 cbbf 619a 92bf 141c 11bf abb7 9d3b
00000040: dd3d a23e 377c 05bf 4ac9 c6be 6515 6b3f
00000050: 5ff8 753e c9e4 e1bf bd01 9dbf 7630 c7bf
00000060: 9eff aabe c523 50be d768 c2bf 40c0 15bf
00000070: 5f47 88bf 5954 243e e550 d43e e509 c5bf
00000080: 15ca 9abf 5510 8e3e 8dff 41bb 6d03 d8be
00000090: fbac 1a40 9420 6040 f0f1 a03f 0166 7541
000000a0: 1146 a741 6338 8441 dcae 3abf 8d32 c5bf
000000b0: a80e 53bf a702 603e 8f65 fcbe e861 18be
000000c0: 3a25 99bf e651 d0bf 1c8b b9bf f571 99bf
000000d0: 5571 b73d d9f6 0b3e 02e5 92bd 6835 18bf
000000e0: 6221 66bf fae6 c4bf b966 08be 0d07 b2be
000000f0: 282a 4d3d b552 3fbe b4a4 a73e 9399 81bf
00000100: cb17 b93e eb28 08bf 54a5 c4bf f670 54bf
00000110: badb c0bf 05f4 c5be 1ee7 ee3e 0e5a 1dbc
-0.1164524 0.13823341 -0.5609449 -1.044297 -1.3398489 -1.1423312 -1.4720032 0.1499742
0.4528993 -0.3021634 0.36741343 0.21006231 -1.5895209 -1.1453363 -0.5668347 0.0048131547
0.31687823 -0.5214266 -0.38825446 0.9182952 0.24020527 -1.7647945 -1.2266155 -1.5561664
-0.33398145 -0.20326145 -1.5188245 -0.58496475 -1.0646781 0.16047801 0.41467968 -1.5393645
-1.209292 0.27746835 -0.0029601783 -0.42190114 2.416808 3.5019884 1.2573833 15.337403
20.909212 16.527533 -0.72923064 -1.5406052 -0.8244424 0.21876012 -0.49296233 -0.14881098
-1.1964486 -1.6274993 -1.4495578 -1.1987902 0.08957163 0.13668384 -0.07172586 -0.5945649
-0.8989469 -1.5382988 -0.13320436 -0.34771004 0.05008903 -0.18683894 0.32742846 -1.0124992
0.36150965 -0.53187436 -1.5362954 -0.82984865 -1.5067055 -0.38662735 0.46660703 -0.00960399

conv1.bias f4 [8]
00000000: 035b 1cbf f1be 17bf 1933 8fbc 5a9d 15bf
00000010: 7d97 8a3f 0170 f6be c21b 80be fc97 eebe
-0.6107637 -0.5927573 -0.01748042 -0.58443224 1.082748 -0.48132327 -0.25021178 -0.4660033

conv2.weight f4 [12, 8, 3]
00000000: 76ed 4bbe 960c c7bf e309 0440 304a 253f
00000010: 137d 253f ac8c dbbf 5f0d 7b3f 34f9 4240
00000020: 16b5 12c0 ce86 ec3f edb3 7cbf 2a31 afbe
00000030: 2ed5 31bf 4314 913e f50f febe 1feb 243f
00000040: 5c16 1cbf c97d c13f 0c73 1dbd fe13 da3e
00000050: b8d4 83be 1c50 acbf 09b5 8b3f 38f2 17bf
00000060: 1837 fbbf 82f0 243f 7e0d e43d 0604 603c
00000070: 46ca 323f b7d8 ea3e 0f7f b1be 5844 293e
00000080: 1ea5 18be 7743 183e 60ee 8bbe 8982 773f
00000090: 6ce9 48bf dddf 5dbe d5d0 f8be f25d f1bf
000000a0: 8895 833f c2c3 563f da73 debd 243c 3b3f
000000b0: f18e 6b3e 0b35 5d3f 2d65 55be f72e 03be
000000c0: d9a9 233e 2041 b43f 642f 0d3e 4f85 3c3f
000000d0: 2b28 363e b224 d03e 70db fa3f 325e c8bf
000000e0: 71ee 17bf 52d3 ed3e e20a 0fc0 1933 d03f
000000f0: c153 95be f9df c63c d66a 61be a2bf 0b40
00000100: c7ef fa3f 35b9 14bf f3f6 e0bf 35a6 e23e
00000110: 19b0 b0be b0f6 3c40 27cd 0340 b0c7 7040
00000120: 4c0f ae3f c97b aebe 5323 6ebf af01 ac3f
00000130: d283 d03d 765d a3be 3d97 1b3f 8fb1 e13d
00000140: 3534 c8bd 9910 843f 0dc7 493f 3532 a8bf
00000150: ea3c 8dbe 38de 2abd dbdb 17bf 23d6 eabe
00000160: 21ce ca3f 7509 d0bf 12bc d5be 2a49 cfbd
00000170: a58d 29be 7a33 0e40 f7bb 1940 80cd 3d40
00000180: 18da bd3f 80f9 163f 6ffb d83f b09c 103f
00000190: 7325 d3bf 3217 a33e 3a25 ddbf f7d4 cc3e
000001a0: 66b6 17c0 8b9e 163f dc47 ea3e 54f6 8d3f
000001b0: 6606 a33d b667 bbbe 122b 8abe 2c25 623f
000001c0: 55ba b9bc 9457 a83f 7a49 d13e fa17 0b3e
000001d0: c343 00bf 8447 c03d beeb 5c3f 9ac9 8c3e
000001e0: d9b8 78bf 7b70 8f3e 24cd 2dbe 9c30 873f
000001f0: d250 373f fb62 b53f 973a 29bf a55b 3e3e
00000200: 8202 a4be 6732 043f 418f dc3e 98be da3f
00000210: 0988 cfbe c647 043e 2d42 40be 4985 61bf
00000220: b157 c43f 8141 3ac0 29f2 3b3f 293c 833e
00000230: 1fcf 5fbf a4a5 3840 ccc5 1240 85e8 5c3f
00000240: 7b17 943f da53 55bf 02e1 8dbf fd12 173e
00000250: 7374 6c3f 00a3 63bd ced3 a2bf 7825 1e3f
00000260: f73c 4fc0 32ff 013f 5ed4 953f b560 673c
00000270: f3cf aabd 6222 35bd f05c ffbd 1e39 863f
00000280: 76ca 01bf 5c0f b13f 617d f63d 1a8a 5abe
00000290: 195c c53e c6e8 0f3e 9542 523f 7988 3e3f
000002a0: a4d0 b1be 551b 433e d1ad 933f 7d29 b43f
000002b0: 947b 6b3f 75f9 cf3e 3f0b 3240 6574 a73e
000002c0: bb5f 80c0 d8ec a53e 139f 04c0 0292 77be
000002d0: f06f 77be 0f39 4c3e 9b2d a7be 0014 cebf
000002e0: a2e3 e5bf e0a7 cc3f 8327 bb3d c04e e93e
000002f0: 0c1a cb3e cba3 a5bf bd73 653e 14e0 66bf
00000300: 05b4 e13e fcc9 753f c99c 91bf 29c5 333f
00000310: c96a 1ec0 52c7 103f 2c41 debf 9281 0bc0
00000320: 30e4 293f 3cec 433e c51b d03e 27ce a93f
00000330: 8d28 71be 1648 b53d a262 acbe 45d5 1f3f
00000340: 7706 c93f 1e5c 483f 5c6f 9a3e f7be 123f
00000350: 1a7d c3be 13ba 833f f8e1 1d40 8755 183f
00000360: 99d0 64bf 3b9d 453f 496a 833d 729b 43bf
00000370: a085 6b3f ad6c 773f d1f0 1cc0 aa92 843f
00000380: 8afc aa3f 6b50 2c3f 47d1 7e3e cf3c 98be
00000390: 510c 19bf b8c4 7dbf d89c 36bf e177 ddbe
000003a0: 8280 b73f 286f b53f 9868 1a3e 0053 8e3e
000003b0: 03a8 a63e e6d0 ad3f 71ee 0cbf 20a2 e6bb
000003c0: 11da 0f40 d857 a83f cc2b 413f d1a8 c63f
000003d0: 3408 6c3f 596a e43f 3997 7140 c2f3 2b40
000003e0: c07b 2c40 c2a5 323f 7d6b 8a3f c5ab 923f
000003f0: cb55 aebe fed2 033e 9481 89be 65a6 7440
-0.19914803 -1.5550716 2.0631034 0.64566326 0.64643973 -1.7152305 0.9806728 3.0464602
-2.2923026 1.8478639 -0.98712045 -0.34217197 -0.6946591 0.2833577 -0.4962155 0.64421266
-0.6097162 1.5116512 -0.038439795 0.42593378 -0.2574823 -1.3461947 1.0914623 -0.5935397
-1.9626188 0.64429486 0.11135386 0.013672834 0.69839895 0.45868465 -0.3466725 0.16529977
-0.14906737 0.14869486 -0.27330303 0.96683556 -0.78481174 -0.21667428 -0.48596826 -1.8856795
1.0280008 0.8389245 -0.10861941 0.7313864 0.23003747 0.8640906 -0.20839377 -0.12810884
0.1598276 1.4082375 0.1378761 0.7364091 0.1778876 0.40652996 1.9598217 -1.5653746
-0.5934821 0.46450287 -2.2350392 1.6265594 -0.29165462 0.02427672 -0.22013411 2.1835713
1.9604424 -0.58095104 -1.7575363 0.4426743 -0.34509352 2.9525566 2.0593965 3.762188
1.3598418 -0.34078816 -0.9302265 1.3438014 0.10181393 -0.31907243 0.60777646 0.11020195
-0.09775583 1.0317565 0.7881935 -1.3140322 -0.27585536 -0.04171583 -0.5931985 -0.45866498
1.5844156 -1.6252886 -0.4174505 -0.10121377 -0.1655794 2.2218919 2.4020975 2.9656677
1.4832182 0.58974457 1.6951731 0.56489086 -1.6495804 0.31853634 -1.7276986 0.4000623
-2.3705077 0.5883567 0.4575795 1.1090798 0.07960205 -0.36602563 -0.26985985 0.8833797
-0.022671858 1.3151727 0.4087637 0.13583365 -0.50103396 0.093886405 0.86297214 0.2749756
-0.97157055 0.28015503 -0.16972786 1.056171 0.71607697 1.4170831 -0.66105026 0.18589647
-0.32033163 0.5163941 0.43078044 1.7089415 -0.40533474 0.12918004 -0.18775244 -0.88094
1.5339261 -2.910248 0.7341638 0.25631836 -0.87425417 2.88511 2.2933226 0.86292297
1.1569666 -0.8333107 -1.1084292 0.14753337 0.9236519 -0.05557537 -1.2720888 0.6177592
-3.238096 0.5078002 1.1705434 0.014122178 -0.083404444 -0.044222243 -0.12468898 1.0486181
-0.50699556 1.3832812 0.12035633 -0.21341744 0.38546827 0.1405364 0.82132846 0.7442699
-0.34729493 0.19053395 1.153742 1.4075161 0.9198544 0.40620008 2.7819364 0.3270599
-4.011686 0.3240726 -2.0722091 -0.24176791 -0.24163795 0.19943641 -0.32651982 -1.6099854
-1.7960093 1.5988731 0.09138396 0.45567894 0.3966831 -1.2940611 0.22407432 -0.90185666
0.44082657 0.9601133 -1.1375972 0.7022272 -2.4752676 0.5655414 -1.7363639 -2.1797833
0.6636381 0.19133085 0.40646186 1.3266038 -0.23550625 0.0885164 -0.33669 0.624348
1.5705098 0.7826556 0.30163085 0.5732264 -0.38181382 1.029116 2.466917 0.59505504
-0.89380795 0.7719304 0.06416757 -0.76409066 0.9200077 0.966502 -2.4521983 1.0357258
1.3358319 0.6731021 0.2488452 -0.29733893 -0.5978442 -0.99128294 -0.71333075 -0.43255523
1.4336092 1.4174547 0.15078962 0.277977 0.32550058 1.3579376 -0.5505133 -0.00703837
2.2476847 1.3151808 0.75457454 1.5520269 0.92200017 1.7844955 3.774855 2.6867528
2.695053 0.69784176 1.0814053 1.145867 -0.3404983 0.12873456 -0.26856673 3.822656

conv2.bias f4 [12]
00000000: 2c46 9f3f cf5d 3dbe 2edc c73f 11ef db3f
00000010: f1fe 253f 8a38 bc3f f846 6b3f 66ae f03e
00000020: cf35 bb3f 8fd9 f4bb d508 8740 0589 d13f
1.244329 -0.18492816 1.5614069 1.7182332 0.64842135 1.4704754 0.91905165 0.47008055
1.4625796 -0.007472224 4.219828 1.636994

linear.weight f4 [65, 768]
00000000: bbb0 f13d 086b 4c3e 7288 ebbd af00 f9bf
00000010: f08c f5bb 0cd8 60bf 9a1c 4bbe 7d71 2dc0
00000020: 10b9 1abf 520f a33f d33a ab3d e3f1 ba3e
00000030: fe8d d63e c665 873e 5141 5ebf d5fe 043f
00000040: 48d6 153f d374 e8be 2308 bf3f e1f0 26bf
00000050: 4f4a 553f b977 aa3c 86aa f7be e930 a3bf
00000060: b5df 50bf f27f 6d3f 69e1 78be 3574 2340
00000070: f3d9 a5be b423 4dbf 1844 11c0 0302 f3be
00000080: 6daa 0940 52e3 32bf d290 f3be 6410 1b3f
00000090: b113 6ebf c7bd b63d 7581 e63f c567 20bf
000000a0: d6d8 80bd 880d 363f 9edc b8be b1a7 f33e
000000b0: 427d e93e 41e4 363f 4260 c23e 60a7 d4bf
000000c0: 45a8 4d3f be86 e6bf 4343 e73e e430 a9be
000000d0: 7e3b c9bf b69d 243f af70 c5bf 065e e9bf
000000e0: 14ee 27c0 2ac9 65c0 c27a 1fbf bf1b 0fc0
000000f0: 5fed 0dbe 332f ce3e 3c78 81bf c6ce 7cbf
00000100: bc07 78be e0b8 75be 7a27 9fbe 0be9 31bf
00000110: 2a3b 46bf 0f49 2bbf 2f0f a2bf 5c9e 9dbe
00000120: 874a 7e3e 0ea6 93bf 9a67 443f c866 b1bf
00000130: 48ac 4b3e 13c6 b0bf 5fef 5bbe 4dc7 0fbf
00000140: 4f72 6b3f 2b27 043f f72c 203f 2809 98be
00000150: f34c 28bf db3f c1be 9eab d23e 5c1d c1be
00000160: 8207 eabe 1f54 68be a902 b23e 30a6 22bf
00000170: c2e1 b6bf e37a 0a3e 172f 2c3f 354a 203e
00000180: f9b4 b7bd ec87 d3be 7e19 6c3e 4e5f 84be
00000190: 800e 80bf c6e5 0e3f 1470 56bf 1489 6ebe
000001a0: b40e af3d 5150 9cbf c268 c2be 434e 92bf
000001b0: 5631 41bf 0196 ab3f 08da 3e3d c290 8abf
000001c0: 1ad9 73be 5ef2 8bbe ea3f 0b3f 71ad 82bf
000001d0: 5993 d7be da08 773f 0b51 acbd da0e 9fbf
000001e0: 4d83 6f3f 8a15 9abf 5c11 c5be 8738 193f
000001f0: d901 02bf c7b5 e63e 6c67 443e d992 d4bf
00000200: bddf f3bf 3097 a1bf 2cfa b6bf cc12 a1bf
00000210: 818b c0be c7df 293f 1848 babf bf18 9a3f
00000220: c795 80bf 6f2b e7bf 9e27 93bf 2444 79be
00000230: a3b7 7c3e 73af 04bf a650 2640 9dc8 9abe
00000240: 32c0 a13f 4ee6 673f ceff 06c0 d910 b0bf
00000250: d85b 2f3f 7a6c cbbe b346 983f 8550 84be
00000260: c796 eb3f 4623 2c3e a240 b73f a6d4 a5bf
00000270: dda7 66bf 0223 003e 5632 3dc0 ce87 08bf
00000280: 2411 103f e35d 60be 2b37 69bf f4dc 57be
00000290: b70f afbe 4c8b f93e 8899 5d3e 111f 8a3f
000002a0: 24b1 cebe 2214 c2bf 3a2e 07c0 843c 64be
000002b0: a341 a2be 369a e23e aa0f fbbf a7d1 7dbe
000002c0: 1be5 903e 83c6 f23d 75ec db3e 6cda a7be
000002d0: af40 1bbf e6a5 e53e abf6 1ebf 82ce 0340
000002e0: b79b 4bbe 2943 86bf a849 1dbe 3ce2 74bf
000002f0: 396c 163f cf52 2bbf 5633 2f3f d0c8 fbbf
00000300: 7326 083f cee0 b1bf 4d48 96bf e2b1 dc3e
00000310: c205 513f f9c9 af3e e3cf aabf 42b0 93bf
00000320: 2cad 4dc0 2392 13bf f73b 90bf 0046 e7bf
00000330: f7b3 b7bf 6896 873d 4a13 3240 40b5 85bf
00000340: 95ce 61bf e7bc 91bf 5207 a73f 9cf1 f83f
00000350: 8a40 353f 0323 cf3e 09a6 14bf 95b6 1540
00000360: e1a4 0fbf dc7a 06bf 3eaa 70be 1617 773f
00000370: f600 c6be 0aa5 b3bf afc3 65be 4618 7cc0
00000380: 8789 ecbf f5e5 ad3e a751 00c0 f21c 8b3e
00000390: 14d5 5ebe e4f7 343f 179d bbbf 35e4 763f
000003a0: 62a2 a63f a073 863c fd27 b1be b9af cabf
000003b0: 91db 023f 0aa3 a43c 67d1 00c0 38f1 80bf
000003c0: f087 2dc0 98b3 b43f 1fbb 413e 5aeb 52bf
000003d0: 1f96 60bf 4b5b 0fbf 6db3 133f ad3d 9abf
000003e0: 803b ddbf 7544 5cbf 6d6a bf3f c70f 14be
000003f0: 1b48 ba3e 49e6 033e cf4d 50bf 10e1 703e
0.11801287 0.19962704 -0.11500634 -1.9453334 -0.0074936077 -0.8782966 -0.1983513 -2.7100518
-0.6043863 1.273905 0.08360829 0.3651267 0.41905206 0.26444834 -0.86818415 0.5195134
0.5853009 -0.4540163 1.4924358 -0.652113 0.8331651 0.020809041 -0.48372287 -1.2749301
-0.8159135 0.92773354 -0.24304737 2.5539677 -0.32392845 -0.80132604 -2.269781 -0.47462472
2.151027 -0.69878113 -0.47571427 0.60571885 -0.92998797 0.08922916 1.8008257 -0.6265834
-0.06291358 0.711144 -0.36105818 0.47588876 0.45603377 0.7144204 0.37964064 -1.6613579
0.80334884 -1.800987 0.45168504 -0.33045113 -1.572128 0.6430315 -1.5425013 -1.8231819
-2.6239061 -3.590403 -0.6229669 -2.2360685 -0.13860081 0.40270385 -1.0114818 -0.9875301
-0.242217 -0.23996305 -0.31084806 -0.6949622 -0.7743403 -0.66908354 -1.2660884 -0.3078488
0.24833117 -1.1535051 0.76720583 -1.3859491 0.19889939 -1.3810447 -0.21478032 -0.56163484
0.91971296 0.51622266 0.6256861 -0.29694486 -0.65742415 -0.3774403 0.4114656 -0.37717712
-0.45708853 -0.2268834 0.34767655 -0.6353483 -1.4287646 0.1352344 0.67259353 0.15653308
-0.08970065 -0.41314638 0.230566 -0.25853962 -1.0004425 0.55819356 -0.8376477 -0.23294479
0.08547726 -1.2212011 -0.3797055 -1.1430134 -0.75465906 1.3405153 0.04659465 -1.0825427
-0.23813286 -0.2733335 0.543944 -1.020918 -0.42104605 0.9649788 -0.08413895 -1.2426407
0.93559724 -1.2037823 -0.38489807 0.5985188 -0.5078407 0.4506056 0.19180077 -1.6607314
-1.9052655 -1.2624264 -1.4295096 -1.2583861 -0.37606433 0.6635708 -1.4553251 1.2038802
-1.0045708 -1.806013 -1.1496465 -0.243424 0.24679427 -0.51830214 2.5986724 -0.3023118
1.2636778 0.9058579 -2.109363 -1.3755141 0.6849952 -0.397312 1.1896576 -0.25842682
1.8405389 0.16810331 1.4316599 -1.295552 -0.9009989 0.12513354 -2.9561973 -0.5333222
0.56276155 -0.21910815 -0.91099805 -0.2108038 -0.34191677 0.48739088 0.21640599 1.0790731
-0.40369523 -1.5162394 -2.1121964 -0.2228871 -0.31690702 0.4425828 -1.9614155 -0.24787007
0.28299794 0.11854269 0.4295384 -0.3278383 -0.60645574 0.44853133 -0.62095135 2.0594792
-0.19883619 -1.0489246 -0.15360129 -0.95657706 0.58758885 -0.6692323 0.6843771 -1.9670658
0.5318367 -1.389673 -1.1740814 0.43104464 0.8164941 0.3433378 -1.3344692 -1.1538165
-3.2136946 -0.5764486 -1.12683 -1.8068237 -1.4351796 0.066204846 2.7824273 -1.0445938
-0.88205844 -1.1385773 1.3049109 1.9448733 0.70801604 0.404564 -0.5806585 2.339269
-0.5611096 -0.5253122 -0.23502442 0.965196 -0.38672608 -1.4034741 -0.22437929 -3.9389815
-1.847947 0.33964506 -2.0049837 0.2717052 -0.2176097 0.7069075 -1.4657315 0.96441966
1.3018305 0.016412556 -0.3460082 -1.5834876 0.5111628 0.020097274 -2.012781 -1.0073614
-2.711422 1.4117308 0.18919037 -0.8239037 -0.87729067 -0.55998677 0.57695657 -1.2050072
-1.7283783 -0.8604196 1.4954354 -0.14459144 0.36383137 0.12880816 -0.81368726 0.23523355

linear.bias f4 [65]
00000000: 47e9 6bbf 9be4 2fbf 9ee1 03bf b8f9 a8bd
00000010: 973e fbbd c252 26bf cc01 7cbe 5f00 9fbf
00000020: c665 74bf a2cc 8cbd 4f50 46bd beff 33bd
00000030: 2e87 a5bd 766f 03bd 4a4b 64bd b784 c6be
00000040: 5af8 1abf c9bc 0abd edcb cbbc 477f a8bc
00000050: 526f ccbc 530e 06bc dc39 debc f5cf 1fbf
00000060: ba8b 05bf 86c6 cebd b752 ccbc e441 113c
00000070: 3c27 3ebc 05ad cdbc 0aa5 e1bc 461f 5abe
00000080: 36b7 64bf 884c 12bd b7e8 03bd 78e8 5fbc
00000090: 74b3 013d 48c4 49bd cab4 2fbd 327d c1be
000000a0: f8c0 8ebf 9868 09be 7778 8ebd 3f26 32bd
000000b0: fd66 e3bd 3b7c ccbc 61ac 2fbc 1f7a 23bf
000000c0: 0571 e8bf ca9d b6bd f71d 8abd 4746 b8bc
000000d0: b7ff 82bc feeb 82bd 09b4 0ebd 0ed9 00bf
000000e0: 16dd c3bf 0b94 b3bf dd8a 04bf 72c6 79bf
000000f0: 6278 51bf b750 fabe 4e6d 30bf c60b 19bf
00000100: e018 1ebf
-0.9215283 -0.687082 -0.5151614 -0.08250755 -0.122677974 -0.6497003 -0.2461006 -1.2421988
-0.95467794 -0.06874968 -0.048416432 -0.043945067 -0.08082424 -0.03208872 -0.055735864 -0.38773128
-0.60535204 -0.033871446 -0.024877513 -0.020568503 -0.024955425 -0.008182126 -0.027127199 -0.6242669
-0.5216633 -0.10096459 -0.024941785 0.008865807 -0.011606034 -0.025106916 -0.027544517 -0.21300992
-0.8934206 -0.035717517 -0.032204356 -0.013666265 0.03166528 -0.049259454 -0.042897023 -0.3779083
-1.1152639 -0.13418806 -0.069565706 -0.043493506 -0.11103628 -0.024961581 -0.010722251 -0.63858217
-1.8159491 -0.089168146 -0.067439966 -0.022494448 -0.015991075 -0.06392668 -0.034839664 -0.503312
-1.5301845 -1.4029554 -0.5177439 -0.9756843 -0.81824315 -0.48889706 -0.68916786 -0.5978359
-0.61756706
